weight/actor.pth (torch, 21349 bytes, 5 tensors)

dense1.weight f4 [64, 5]
000000 cd 4c a1 bd 06 47 be 3e 2a ed 5f 3b ef 75 b1 bc
       -0.07875977 0.37163562 0.003416846 -0.02166268
000010 a0 7b 47 3e 26 7f ae 3d b1 0c bd bc 86 89 83 be
       0.19480753 0.085203454 -0.02307734 -0.2569086
000020 ee d0 9d be 8f 84 a1 3e 79 dd 11 3d a9 64 b8 3e
       -0.30823463 0.31546447 0.035611603 0.36014298
000030 53 26 15 bb 45 8c f4 3b 27 9f 69 be 6f ea 4d be
       -0.0022758439 0.0074630105 -0.22814618 -0.2010896
000040 13 0f 1b 3e 28 16 70 bd c5 83 db 3e 11 28 59 be
       0.15142469 -0.05861488 0.4287397 -0.2120669
000050 83 83 b0 bd 46 14 70 be 9b 10 8d 3d 40 b1 db 3b
       -0.08618834 -0.23445234 0.06887933 0.0067044795
000060 6d 25 93 bd e8 fe 8d 3d 15 49 92 bd 84 96 02 3e
       -0.07184873 0.06933385 -0.071428455 0.1275273
000070 db 69 9b 3e b9 53 67 3e 63 27 12 3e 62 54 8a 3e
       0.303542 0.22590531 0.14272837 0.27017504
000080 25 47 f7 bc c6 64 69 bc ee 64 18 be b3 01 de be
       -0.030185292 -0.014245218 -0.14882252 -0.4336067
000090 3c 66 66 3d de 2e b6 3b 1c dd 37 bd 17 1d ee bd
       0.056249842 0.005559786 -0.0448886 -0.11626642
0000a0 e7 72 92 be 4a b1 3a 3c bc f6 19 bc 0f 7a 5e 3e
       -0.2860329 0.011394808 -0.009397205 0.21726249
0000b0 bf 24 50 3e 8c 8d db 3d bf aa ec be ba 03 9d be
       0.20326518 0.10720357 -0.4622402 -0.30666906
0000c0 35 c9 81 be 9b b3 70 3e 98 a3 a4 bd 9e 5e 87 3e
       -0.2534882 0.23506014 -0.080390155 0.26439375
0000d0 ec ec 20 3e b7 50 0e be ee a6 40 bd 4d 54 c2 3d
       0.15715379 -0.13897978 -0.047034197 0.09488735
0000e0 99 5d 02 be 9e 25 ea bd d9 5d 80 be 3f f0 eb bb
       -0.12731017 -0.11432956 -0.250716 -0.0072002704
0000f0 53 89 85 bd 8c f7 0b 3d f5 a8 2a 3e 41 4e 6c 38
       -0.06520333 0.034171626 0.16666014 5.6339664e-05
000100 71 75 76 3d 33 02 eb 3d 1e bc bc bd e2 6e 5f 3d
       0.060170595 0.11475029 -0.09215568 0.054549105
000110 fd ae 70 3d f1 dd 38 3e 92 2f 6d bd e1 26 af 3d
       0.05876063 0.18053414 -0.057906695 0.085523374
000120 e9 1b a5 be 22 5a 9f be f8 f2 45 3e ef b4 73 bd
       -0.32247856 -0.31123453 0.19330966 -0.059498724
000130 5a e6 9f bd 43 bf 16 3e 29 b8 21 be 53 25 05 3c
       -0.07807608 0.14721398 -0.15792908 0.008126575
000140 70 87 63 3e 1f de c1 3c ec 30 bd bd cc 1d ca be
       0.22219634 0.023665486 -0.09237847 -0.39475858
000150 39 76 71 3e ba 51 8e 3e 28 3b 83 be 53 3b 10 bc
       0.23580255 0.27796727 -0.2563107 -0.0088032065
000160 42 b2 3b be e6 0b 04 3d 35 2f 87 be f8 20 84 be
       -0.18329719 0.03223791 -0.26403204 -0.25806403
000170 3e 7f 6f bc b9 4d da 3d c8 07 6c 3c f8 56 f1 3c
       -0.014617739 0.10659356 0.014406152 0.029460415
000180 ff 49 b6 be 14 91 5d 3d 95 bd 72 be 20 9f db 3e
       -0.3560333 0.054093435 -0.23705132 0.4289484
000190 f7 56 44 3e ef 27 e8 bc a6 e8 0b be b8 e3 b4 be
       0.191738 -0.028339354 -0.13662967 -0.35329986
0001a0 eb 71 33 bc a9 9c 20 be 67 f3 33 3e e5 1d 2e bd
       -0.010952453 -0.15684761 0.1757332 -0.04250898
0001b0 2f 0e 91 3b 88 cb 47 bc 83 81 6b 3d b2 0b 57 bd
       0.0044267396 -0.012194522 0.05749656 -0.052501388
0001c0 83 6f 26 3e e2 57 01 3e e5 c0 0f be ca ee 18 3e
       0.16253476 0.12631181 -0.14038427 0.14934841
0001d0 30 72 0b bc 6c 1c 84 3e da 0a 71 3d c6 92 ec bc
       -0.008511111 0.25802934 0.05884824 -0.02887858
0001e0 bf 42 8a be d3 00 22 3e a3 d6 32 3d fd 20 bd 3d
       -0.27004048 0.15820627 0.043661725 0.09234808
0001f0 98 87 80 bc 83 45 e3 bd a6 03 94 be f1 3d 05 be
       -0.015689656 -0.11097243 -0.28909034 -0.1301191
000200 aa 53 09 3e b0 2d 14 be 34 33 f1 3d 4f eb 02 3f
       0.13410822 -0.14470553 0.11777344 0.511403
000210 3a 71 1c be cb 93 ac 3d 26 2e 72 bc a5 0d 46 bd
       -0.15277568 0.08426627 -0.01478151 -0.048352856
000220 89 0a d4 3e 85 c9 1c be b3 68 ed 3d c8 b7 04 be
       0.41414288 -0.15311249 0.115922354 -0.12960732
000230 81 70 06 bc cd 50 7c 3c 53 0a 80 3d 78 d6 b6 3e
       -0.008205534 0.015400124 0.06251969 0.35710502
000240 90 b8 c3 bd c6 2f eb bc d1 fa 96 3e 4c cf 88 3e
       -0.09556687 -0.028709304 0.29488233 0.26720655
000250 01 6d 70 bd 59 23 ab 3d ea 40 60 be b6 0d 21 3e
       -0.058697704 0.083563514 -0.21899763 0.15727887
000260 58 36 e0 3d 82 9c 95 bd af 6b 81 3d 35 de ce bd
       0.10947865 -0.07305242 0.06319367 -0.101009764
000270 7e e5 6b be 0e 0b 07 3d 18 19 7b be 7d 1c 02 be
       -0.23036763 0.032969527 -0.24521291 -0.1270618
000280 43 16 5f bd 4e 40 30 3e d8 32 ae bc a1 f0 1a 3e
       -0.05446459 0.1721203 -0.021264479 0.15130855
000290 e8 ae a1 be d9 5a 0d 3e 3e 03 8c bd 59 a9 49 3c
       -0.31578755 0.13804187 -0.06836556 0.012308442
0002a0 80 1e a0 3d 84 ad df bd a7 ea 01 bf 1d 7b af 3d
       0.078183174 -0.10921767 -0.50748676 0.08568404
0002b0 7a 92 9d 3c 1c 80 e4 3d 2a 84 01 be 36 64 81 bc
       0.019234885 0.111572474 -0.12648073 -0.015794855
0002c0 1f ae f3 3d 39 1c 6b 3e e6 f5 f1 3e ee 9a 62 3d
       0.11898445 0.22959985 0.47257918 0.055323534
0002d0 83 7c 80 3e e3 6f 96 be 71 40 7f be be a6 60 3e
       0.25094995 -0.29382238 -0.24926926 0.21938607
0002e0 9e 96 9d be ae 2f dc bd cf 4e 99 3e 6a 97 1b be
       -0.30778974 -0.10751282 0.2994294 -0.15194479
0002f0 74 be 88 3d d8 3f 91 3d 04 54 e9 bd a3 24 35 3e
       0.06676951 0.07092255 -0.11392978 0.17689757
000300 5e 61 0d be 1d 4f d4 3e 48 12 65 3e 02 00 2b be
       -0.13806674 0.4146661 0.22370255 -0.16699222
000310 fb bb 37 be 5c d3 a0 3e 23 c1 9f 3e 8c d0 dd bd
       -0.17942803 0.31411254 0.3120204 -0.10830793
000320 8f 3a 03 3e ec f9 b2 be 0d 10 19 be ba aa 97 be
       0.12815307 -0.349563 -0.14947529 -0.29622442
000330 b1 b7 80 3e 8e 65 a4 bd d0 25 97 be 54 b7 8f bd
       0.25140145 -0.080271825 -0.29521036 -0.07017389
000340 39 ba e8 3c 22 b6 56 3b c2 9d d8 3d b4 ca 0c bc
       0.02840911 0.0032762368 0.10576965 -0.00859325
000350 d9 c6 85 3e 66 2b 87 be a4 b3 88 3d b5 65 8a be
       0.2612827 -0.26400298 0.06674889 -0.2703072
000360 0c 0a 89 3e 96 9a 63 3e ea c3 7f 3d 89 f4 74 3d
       0.26765478 0.22226939 0.062442698 0.05980352
000370 fe 80 d5 bd a0 e6 e7 bd 5b f3 84 be d3 80 5d bd
       -0.10424994 -0.11323285 -0.25966915 -0.054077934
000380 0c 20 d8 3c 66 84 c5 3d 6d f3 ac 3e de 35 dc ba
       0.026382469 0.096443936 0.3377947 -0.0016800722
000390 ed d8 56 be 96 20 7d 3e 3e fc 3f bd 7b 83 0d be
       -0.20981188 0.24719462 -0.046871416 -0.13819687
0003a0 64 7a 58 3d b5 98 9f be 19 c9 26 3d 7b 20 46 bc
       0.052851096 -0.31171194 0.040719125 -0.012092705
0003b0 e0 43 44 3d 7d 40 83 be 9b 4d 8c 3c 49 1c 5c be
       0.047916293 -0.25635138 0.017126849 -0.21495165
0003c0 d2 74 9b be 89 d7 1e 3e 6a 16 e4 3d 78 f0 83 bd
       -0.30362564 0.15511908 0.11137088 -0.0644235
0003d0 55 b1 72 bd 9d 80 94 be 34 a8 e3 bd 89 70 1a bd
       -0.05925115 -0.29004374 -0.111160666 -0.03770498
0003e0 13 69 d4 3d 08 3e 08 bf 76 fa bc bb 0f dd db bd
       0.10371604 -0.5321965 -0.005767162 -0.10735523
0003f0 06 72 09 be a5 3a 06 be 78 ba 82 3e be 18 61 be
       -0.13422403 -0.13108309 0.2553289 -0.21982095

dense1.bias f4 [64]
000000 3c 55 21 3d b6 65 7b 3c 92 eb bc 3c 6e 9a db bb
       0.039387926 0.015344074 0.023061547 -0.006701759
000010 76 ba f9 bc 0a 73 ab bb ae 43 4f 3c 78 d9 2d 3c
       -0.03048442 -0.0052322196 0.012650413 0.010610931
000020 d8 b6 1a 3c 53 96 85 bc 2c 50 03 3d dc 65 32 bb
       0.009443007 -0.016307032 0.03205888 -0.0027221357
000030 78 6a 50 3d ea 39 96 bd ee 38 5b 3c 72 ef 2a 3d
       0.050882787 -0.07335265 0.013380272 0.04173226
000040 48 08 09 3c ef 75 88 bc ca de 87 bd 7e b7 a8 3c
       0.008363791 -0.016657798 -0.066342905 0.020595308
000050 61 14 fc 3b 1c 35 a3 3c 5b 8d 57 bc ab 49 e5 3b
       0.007692859 0.019922785 -0.01315626 0.0069973073
000060 a7 19 d0 3c 2f 1d 91 bc 8e 98 dc ba dc d7 b3 bb
       0.025402857 -0.017714111 -0.0016830133 -0.005488379
000070 49 62 b5 bb 97 8f 78 3d 41 c5 9d 3c c7 6f 0c 3b
       -0.005535398 0.060683813 0.019259097 0.002142893
000080 bc f1 23 bb 9a 0a 42 bd 10 23 1a 3d d2 90 22 bc
       -0.002501591 -0.04737339 0.037631094 -0.009922223
000090 55 1e 67 3c ae 72 cc 3c bd dc 4f bc 21 3a 48 bc
       0.014106353 0.024957027 -0.012686905 -0.01222089
0000a0 a8 85 31 bc 55 05 2f bc 39 c0 8f 3b 83 f3 13 3d
       -0.010835089 -0.010682424 0.0043869284 0.036120903
0000b0 64 fc bd 3c 54 f4 04 3d 60 f2 f4 3b df 66 0c bd
       0.023191638 0.032459572 0.0074751824 -0.034277793
0000c0 88 5a 4d 3c 80 d5 7c bc 69 53 1b bc 68 05 3d bb
       0.012533791 -0.015431762 -0.009480336 -0.0028842334
0000d0 f0 e2 0b 3c e2 fb 08 3b f6 13 22 3b 5d ff 1d 3c
       0.008537993 0.0020902087 0.0024731136 0.009643403
0000e0 c9 ef 22 bc 12 9c f9 bc ad 44 86 3c 03 33 28 ba
       -0.009944865 -0.030469928 0.016390169 -0.0006416293
0000f0 8f 6a ad ba 83 77 0e bb 4d df 26 3b 36 ab 40 bd
       -0.001323061 -0.0021738715 0.0025462687 -0.04703828

dense2.weight f4 [64, 64]
000000 28 c8 2a 3e 51 fd 15 bb 62 ed ec 3d fa b7 e6 3d
       0.16677916 -0.0022886584 0.11568715 0.112655595
000010 5b 0d e6 bd cf 72 40 be 8b ad 07 bb 94 5f 42 3d
       -0.11233016 -0.18793796 -0.0020702805 0.04745443
000020 bd 11 8b 3e 1e ea 9f bd b5 13 b2 3e 8d 36 ab be
       0.2716197 -0.07808326 0.3478066 -0.33440056
000030 41 2e f2 3c 54 d9 b9 3d e5 29 75 3c 19 74 09 bd
       0.029563071 0.09074655 0.014963602 -0.033557985
000040 31 52 40 be df 85 95 be 00 51 03 3e 3f 98 e5 bd
       -0.18781354 -0.29203698 0.12823868 -0.11210679
000050 d4 fe f9 bd db 62 94 3e 47 4a 2a 3e 53 be 85 3e
       -0.12206808 0.2898167 0.16629897 0.26121768
000060 b3 3a cc be c2 87 e4 3d 0a 31 de 3c a1 77 bd bc
       -0.39888534 0.11158706 0.027122993 -0.023128333
000070 8b 60 62 3b e8 cc 03 bb ba 87 af be 72 6e 7d bd
       0.0034542407 -0.0020111147 -0.3428324 -0.061872907
000080 27 c7 e1 bd 0d 7b 97 3e e8 5a cb 3d e1 97 03 3e
       -0.110243134 0.29586068 0.09929448 0.12850906
000090 51 f3 9b 3e ac bd 37 bd 3d 60 9b 3d fd 13 31 3d
       0.30459073 -0.04485862 0.07586715 0.043231953
0000a0 62 d1 58 3e 39 f6 8c be 11 59 01 3e 60 33 c8 3e
       0.21173623 -0.27531603 0.12631632 0.39101696
0000b0 c5 88 3e be a0 44 8c 3d 61 d3 5a be bd c9 4b 3e
       -0.18606861 0.06849027 -0.21369697 0.19901176
0000c0 7f 79 06 3e a6 9d 8a bd d1 92 2e bd 97 ee c0 3e
       0.13132285 -0.0676835 -0.042620484 0.3768203
0000d0 25 3c 60 bd 58 7d 1f 3e af c1 65 bd c1 07 3f bd
       -0.05474486 0.15575159 -0.056092914 -0.046638254
0000e0 1f 82 4b bd 87 ec 47 3e 23 fa 22 3e 31 f1 55 3e
       -0.04968464 0.19523822 0.15915732 0.20892788
0000f0 60 18 84 bc 25 fd 82 3e 19 d2 8b bd 02 bb b8 3a
       -0.016124904 0.2558376 -0.06827182 0.0014093819
000100 88 03 f5 3d ab fc f0 bd 17 d6 8e bd 91 f7 b6 be
       0.11963564 -0.117669426 -0.06974428 -0.35735753
000110 35 98 83 be ae 50 3b 3e e6 2d 84 3d 1b a4 bb bc
       -0.25702062 0.18292496 0.06454067 -0.0229054
000120 1a 0b 92 be 36 4b 65 3e d5 30 08 bd 43 5e 62 bd
       -0.28524095 0.22391972 -0.033249695 -0.055265676
000130 27 d5 a2 3d 5a bc 0d 3e 0f 09 3e 3d 46 30 09 3e
       0.07950812 0.13841382 0.046395358 0.13397321
000140 ab 02 09 3c 1c 1f dd 3e 7e 88 e8 3d 08 83 34 bc
       0.0083624525 0.43187797 0.11354159 -0.011017568
000150 0b d9 60 3e 27 ab e7 bd 13 86 36 bd 30 b0 81 3e
       0.21957795 -0.113119416 -0.044561457 0.25329733
000160 41 a5 1e be d1 ae 90 bd 08 a2 42 be 41 58 8d be
       -0.15492727 -0.070645936 -0.19007123 -0.27606395
000170 e9 f9 3e be 33 7e bc 3d ec fe 9b bd 29 b6 c0 3e
       -0.1865002 0.09203758 -0.07616982 0.37638977
000180 8e c5 74 3e 42 24 6b be 10 51 97 bd 91 63 6e 3e
       0.23903486 -0.2296305 -0.07388508 0.23280169
000190 ca a2 2e 3d c6 57 c2 be b3 5f 4b be bc 20 32 be
       0.042635716 -0.3795759 -0.19860725 -0.173953
0001a0 ce a7 ed 3d c0 58 5a 3e df 61 dc 3d c8 5a f0 3d
       0.11604272 0.21322918 0.10760855 0.11736065
0001b0 ad 8f 8f 3c 5d 68 0d 3c 77 c9 28 3d 43 18 f1 3c
       0.017524565 0.008630839 0.041207757 0.029430514
0001c0 64 ed d2 be ef 83 e5 be a9 67 60 3e 9f d4 84 3d
       -0.4119674 -0.4482722 0.21914543 0.06485867
0001d0 0d 39 ea bd 52 f8 74 3e 54 58 25 be b8 ad 99 bd
       -0.11436663 0.23922852 -0.16146976 -0.07503837
0001e0 3c 6a 60 3e ff 4c 6f be 5d c1 8a bd 2c c1 40 bd
       0.21915525 -0.23369215 -0.06775162 -0.047059223
0001f0 f0 94 ee bd d9 09 0b 3d 9c 3e b4 3e 3e f2 85 3e
       -0.11649501 0.03394494 0.35204017 0.2616138
000200 2e 1e 26 be 37 9c ca be 83 17 22 be e0 56 6f 3c
       -0.1622245 -0.39572307 -0.15829282 0.014608115
000210 da a9 c6 3d 9e ff 18 bd 0c c4 02 3d c6 73 d1 3d
       0.09700365 -0.03735315 0.031925246 0.1022716
000220 7b d4 64 bd f8 1b f5 3d 9b d4 cf bd 1a b4 52 be
       -0.0558667 0.11968225 -0.10147973 -0.20576516
000230 09 12 c8 bc ab 05 dd 3d 0b 22 2d 3e fc a7 5f bd
       -0.024422662 0.10792097 0.16907518 -0.05460356
000240 25 9b ba be 51 c1 e9 3d 81 df e4 3d 7a aa 31 3e
       -0.3644649 0.11413825 0.111754425 0.17350188
000250 d7 81 16 3e 2a e6 84 bd 07 ab b3 3e 45 04 e8 be
       0.14697967 -0.06489213 0.3509142 -0.45315757
000260 7b 57 16 3b 8c ac fd 3e 96 8b e4 bd d4 7e 31 bd
       0.0022940326 0.49545705 -0.111594364 -0.043333843
000270 0e 87 cc 3e cc 44 92 bc 96 03 ef bc 1f 26 2d 3e
       0.3994679 -0.01785507 -0.029176515 0.16909073
000280 a6 20 54 be 4f 5b 76 bd e1 d3 ae 3d 6c d0 ae 3c
       -0.2071558 -0.060145672 0.085365064 0.021339618
000290 20 b5 3b bd 86 0a 97 be 91 f5 b2 be cd 4e 9a 3d
       -0.04582703 -0.29500216 -0.34952977 0.07534561
0002a0 57 73 f5 3d 62 2d 33 bd a4 39 be bc c3 52 9b bd
       0.1198489 -0.043744452 -0.023220845 -0.07584145
0002b0 6e 21 b5 bd 35 25 9f bd da 1d 77 3e 9d b6 5d be
       -0.08844267 -0.077707686 0.24132481 -0.21651693
0002c0 33 8a 9f 3d 62 75 22 3e f2 55 2f 3e 33 f6 2d 3e
       0.07790031 0.1586509 0.1712263 0.16988449
0002d0 fe 54 29 be 02 67 a5 3d 0d 7a 7c be 0f 90 4a bc
       -0.16536328 0.08076288 -0.24655934 -0.012363448
0002e0 46 60 35 be 6d 04 6e bd e9 ec b9 be 40 19 f7 bd
       -0.17712507 -0.05810969 -0.3631356 -0.12065363
0002f0 d6 1c db bd 4f f2 96 be c1 43 cb bd 2c f8 71 3d
       -0.106988594 -0.29481742 -0.099250324 0.059074566
000300 02 80 f3 3d d8 31 ed bd d4 51 62 3e 09 91 98 3d
       0.1188965 -0.115817726 0.22101527 0.07449538
000310 10 bd 64 be 8d df 64 3e e5 f3 16 3e 74 1e 23 ba
       -0.22337747 0.22350903 0.14741476 -0.00062224944
000320 b9 96 4e bd 02 d7 c5 3d 28 d8 a7 bd 21 a8 4d bb
       -0.05043671 0.0966015 -0.081955254 -0.003138073
000330 cb e2 29 bb 60 e6 fb bd 73 1d 12 be f3 31 51 be
       -0.0025922533 -0.122998 -0.14269046 -0.2042921
000340 b2 98 51 be 8e 07 ce bb 67 6d 7f 3e 73 6b ea bd
       -0.20468405 -0.0062875217 0.24944077 -0.114462756
000350 a9 63 8e be 26 6e 9d 3d aa 8e 63 3d 4d 61 57 be
       -0.2781041 0.07687025 0.055555977 -0.21033211
000360 42 18 23 3e 7c 64 86 be ed ab 4c 3d cb de fb bd
       0.15927222 -0.26248538 0.04996865 -0.12298354
000370 59 82 61 3e 12 b3 74 3d 08 cf 54 3e eb 64 c9 bd
       0.2202238 0.059741087 0.20782101 -0.09833702
000380 51 00 d1 3d f4 0d 96 b7 33 c5 26 3e f5 e4 d7 3e
       0.102051385 -1.788789e-05 0.16286163 0.42166868
000390 4c be 07 bc 9a 21 09 3e 6d f1 09 3f c1 ce 65 be
       -0.008285116 0.13391724 0.5388401 -0.22442152
0003a0 29 42 8f be 40 57 f3 bd e6 9f c5 3c f1 81 60 3e
       -0.27980164 -0.11881876 0.024124097 0.21924569
0003b0 ff 5e 6d be 5a a9 a9 3d 15 6c 24 3e 82 74 94 be
       -0.2318077 0.08284254 0.16056855 -0.28995138
0003c0 15 cf ca 3e ce e3 61 3d 48 c4 1f bd 54 1c ca 3d
       0.39611116 0.055148892 -0.039005548 0.098686844
0003d0 48 00 04 be 02 b5 56 be 14 03 f5 3d 7c dd 90 be
       -0.12890732 -0.20967487 0.11963478 -0.2829398
0003e0 67 a2 36 3e 5b b4 54 3e 4c 55 a9 3d 12 8c d0 bd
       0.17835389 0.20771925 0.08268222 -0.10182966
0003f0 01 00 5a 3e 77 43 a8 3e 0f d8 80 be ac 78 2f 3d
       0.21289064 0.32863972 -0.2516484 0.04283969

dense2.bias f4 [64]
000000 75 0b 45 bc 55 c9 ec bb 54 4d 12 bc 10 52 71 bb
       -0.012026657 -0.007226149 -0.008929569 -0.0036822595
000010 e9 61 81 bc f9 1c b4 bc 8a c2 ae ba d5 b8 ce 3c
       -0.015793758 -0.021986471 -0.0013333124 0.02523462
000020 e1 12 4d 3c 6b f2 27 bc 7b 92 ef 3b 9f 04 de b9
       0.012516708 -0.010250668 0.007311163 -0.00042346583
000030 55 09 1d bc 7c c1 0c bd 47 92 8c 3c 30 53 9f 3d
       -0.009584744 -0.03436421 0.017159594 0.07779539
000040 b9 50 20 bd 6c 44 1b bd 49 68 f1 3c 4b 36 06 bb
       -0.039139483 -0.03790705 0.029468672 -0.0020479138
000050 0a 4c 05 3d 29 45 07 bd 34 3f 32 bd b6 3e f2 ba
       0.03254322 -0.03302494 -0.043517306 -0.0018481824
000060 8b b7 b6 bb 42 95 0f bd 73 ef 5f 3c 7a bc 34 bc
       -0.0055760792 -0.035054453 0.013667929 -0.011031264
000070 e6 a8 86 bc dc 9d 0b 3c 04 c2 da bb e7 5f 48 bc
       -0.016437959 0.008521523 -0.0066759605 -0.012229896
000080 ee f3 20 bd 0b 0c 17 bc c9 85 0d 3d f2 1c 9e bc
       -0.03929513 -0.00921918 0.034551416 -0.019300912
000090 4d ee cc 3c 17 ab 07 bc a3 26 6c 3c 85 ac 91 bd
       0.025015974 -0.008280537 0.014413509 -0.071129836
0000a0 36 1b 58 bd 0a 94 e9 bc f6 7a ba bb 24 52 e9 3c
       -0.052760325 -0.028512973 -0.0056909276 0.02848155
0000b0 0f b6 f2 ba f0 13 a4 bc 77 7e 25 3d 22 1c 4f bc
       -0.0018517392 -0.020029038 0.04040381 -0.012640985
0000c0 b6 cb 5d bd ce 80 21 3d ff 45 09 bd 80 8b 4c bc
       -0.054149352 0.03942948 -0.03351402 -0.012484431
0000d0 e7 41 19 ba 7c 9a 22 3d 94 64 e9 bb da 5b 9d b9
       -0.0005846307 0.03969811 -0.0071225855 -0.00030013808
0000e0 da 00 15 3d 5c 26 2f bd e6 ba 0d 3c 07 b2 0f 3b
       0.036377765 -0.04276119 0.008650517 0.002192618
0000f0 0d 5c 0f 3c bd 50 04 3d 46 5c 05 3c 50 c1 df 3c
       0.008749974 0.03230356 0.0081396755 0.027313858

mean3.weight f4 [1, 64]
000000 58 da 27 3d 17 6f 90 bd 77 0c 8c bd 81 87 bf 3d
       0.040979713 -0.07052439 -0.06838315 0.09352017
000010 d5 8d eb bd f2 4f c3 bd 04 2a ce bd 30 23 b9 3d
       -0.11501662 -0.09536733 -0.100666076 0.090399146
000020 d9 2a dc 3d 2c 34 c8 bd 01 86 b5 3d 69 a7 64 bd
       0.1075036 -0.09775576 0.0886345 -0.055823717
000030 7e df c8 bd 29 41 59 bd 91 69 85 3d 09 13 00 3c
       -0.09808253 -0.053040657 0.06514276 0.007817038
000040 5a 43 4a bd 54 a4 00 be b1 33 96 3d 57 6b ba bd
       -0.049380638 -0.12562686 0.07334078 -0.09102505
000050 b4 61 bf 3d a9 5b b9 bd 5d 15 8d bd 98 7e d3 bd
       0.09344807 -0.09050686 -0.0688884 -0.1032688
000060 7e e0 ba bd c3 aa 13 be 98 b2 e0 3d 25 22 c6 bd
       -0.0912485 -0.14420609 0.10971564 -0.09674481
000070 fa 33 7c bd 1f f3 93 3d b3 bd aa bd 48 d0 cb bd
       -0.061573006 0.07224106 -0.083369635 -0.09951836
000080 47 09 a7 bd 35 de cf 3d 6d f7 41 3d 3b b5 e9 bd
       -0.081560664 0.101498045 0.047355104 -0.1141152
000090 c3 40 dc 3d ef bd 92 3d 95 6e 67 bd f3 2d 9e bd
       0.1075454 0.07165133 -0.056501944 -0.07723608
0000a0 96 3a cc bc 86 fe d0 bd 05 d2 b6 3d 64 1d c4 3d
       -0.02493028 -0.102047965 0.08926777 0.09575918
0000b0 81 41 a4 bd 99 c2 1f 3d c7 fb 3b 3c 99 ed de bd
       -0.080203064 0.039003942 0.011473603 -0.10885162
0000c0 61 36 dc bc 07 51 8f 3d 82 a3 0a bd 96 0b b3 bd
       -0.026881399 0.069978766 -0.03384734 -0.08742444
0000d0 bf 19 a5 3d 3f 1f 79 3d 21 d6 f0 bd 78 94 de 3d
       0.08061551 0.060820814 -0.11759592 0.10868162
0000e0 69 9a da 3d a6 88 06 be ab a3 f7 3c 72 19 b3 3d
       0.10673983 -0.13138065 0.03022941 0.08745088
0000f0 4c 44 82 3d fa 9f a1 3b b5 83 b6 3d 53 43 42 3d
       0.06360683 0.004932401 0.0891184 0.047427487
