weight/critic.pth (torch, 21084 bytes, 5 tensors)

dense1.weight f4 [64, 5]
0.054101184 -0.050703052 0.03788555 -0.028667234 -0.051354658 0.010456919 -0.019352522 0.010726809
0.015591046 0.2685725 -0.08964977 -0.032996632 -0.042205174 0.016701918 -0.06359303 0.17949055
0.021770319 -0.028854866 0.0065738824 0.10096132 -0.03505102 -0.096083775 -0.12321185 -0.19065708
0.14903566 -0.15730704 0.019019034 0.061036833 0.075299054 0.045544878 0.18809113 -0.0753785
0.25298747 -0.00037922224 0.1086428 0.14251162 0.03120078 -0.031977605 0.0119893 0.115973346
-0.032933798 -0.045277286 0.059389945 -0.04554578 0.38253844 0.024445007 -0.0001161971 -0.0012031625
-0.0060242573 -0.08731014 -0.12779954 -0.07480939 0.011410953 -0.022140399 -0.12366501 0.122317456
-0.015758675 -0.024455156 0.0018339881 0.3141619 0.3355244 -0.23423798 -0.15644595 0.018054621
0.028024891 0.22685061 0.033461593 0.0381337 -0.033136215 -0.099789836 -0.028437043 0.026714023
-0.116347075 0.03101616 0.049443875 -0.14283854 -0.058593415 -0.02182669 0.025462331 -0.06982995
-0.011854562 -0.09031525 -0.04292664 0.049972814 -0.40370312 0.08622729 0.05865163 0.062182024
-0.03047426 -0.24185766 0.07611972 0.004354459 0.011070702 -0.015854334 0.091759786 -0.12534381
0.07846631 -0.27945942 0.15549383 -0.025238356 0.24093373 0.07159655 0.17087261 -0.14665963
-0.029775806 -0.21476379 -0.03560641 -0.07793167 0.04722716 -0.11922183 -0.18498038 -0.08627245
-0.0006972011 0.029479079 0.120935746 -0.022228174 -0.014132726 -0.041046813 0.0095086 0.07624177
-0.06460617 -0.058190178 0.00484385 -0.0115713645 -0.052833 -0.112069525 -0.005714605 0.0034248447
0.0066330074 0.14596799 0.18856445 -0.005741341 -0.013032928 0.01718369 -0.1092382 -0.010081519
0.022925355 0.029332532 -0.014954296 -0.24952601 -0.15942419 -0.0247627 -0.019071778 0.014198441
-0.014236152 -0.0434588 0.05735328 -0.009208729 -0.00055647787 -0.029874865 -0.08864319 0.09855647
0.047381468 -0.013638183 0.1509434 0.0697825 -0.19700687 0.023227619 0.012392706 -0.2980106
0.36714038 0.02231698 0.13478181 -0.0793023 -0.01213239 -0.025996564 0.025430463 -0.023641886
0.027414886 -0.035631757 -0.11904634 -0.14148633 0.0070670894 -0.05179496 0.13717152 -0.03661326
-0.005460452 0.0006341547 0.012143392 -0.16673805 -0.094738185 -0.13049403 -0.13493147 -0.12467977
-0.22165659 0.058475338 0.01025911 -0.0077540423 0.0069104065 -0.120853394 0.04736555 0.015424748
0.010114394 0.017496455 0.19391818 0.15949564 0.050419036 0.087325275 -0.11012258 0.02007271
-0.08936187 -0.111579224 -0.10837358 0.03163428 -0.023895131 0.03952909 -0.049180407 -0.05708093
0.023461327 0.481853 -0.04823139 -0.04804034 0.024098145 0.0066207475 -0.13537903 0.08904043
0.121924825 0.11093334 -0.07243029 -0.07713095 0.032838996 0.009708185 -0.01635963 0.005468624
0.12780201 -0.08211534 -0.034998465 -0.005960768 0.014395653 -0.16741273 0.061000187 0.06269305
-0.17446965 0.094449155 -0.027650448 0.0020411157 0.02215834 0.007684163 0.009518692 0.023921551
-0.08850349 -0.049863987 -0.16310725 0.034697372 0.19804378 -0.06643628 -0.005195107 0.018604023
0.00939376 -0.23088944 0.02404956 -0.000801059 -0.01242585 -0.0010724626 0.0116416905 0.26976067
00000000: 3499 5d3d 01ae 4fbd e12d 1b3d 8cd7 eabc
00000010: 4359 52bd 7f53 2b3c 2e89 9ebc 7fbf 2f3c
00000020: 9671 7f3c 5682 893e 4c9a b7bd 7a27 07bd
00000030: 55df 2cbd 76d2 883c 103d 82bd 5fcc 373e
00000040: ab57 b23c 0a61 ecbc b969 d73b cfc4 ce3d
00000050: a991 0fbd 92c7 c4bd 7f56 fcbd 9c3b 43be
00000060: ce9c 183e 1915 21be cecd 9b3c c201 7a3d
00000070: 6436 9a3d 448d 3a3d f69a 403e 0b60 9abd
00000080: 9387 813e 59d2 c6b9 1e80 de3d 91ee 113e
00000090: c798 ff3c f3fa 02bd c56e 443c 6f83 ed3d
000000a0: 97e5 06bd ad74 39bd df42 733d 368e 3abd
000000b0: 14dc c33e e540 c83c d8ae f3b8 6fb3 9dba
000000c0: 2267 c5bb a9cf b2bd e2dd 02be aa35 99bd
000000d0: 01f5 3a3c c85f b5bc 1544 fdbd 9381 fa3d
000000e0: 5618 81bc 2e56 c8bc 6e62 f03a d4d9 a03e
000000f0: dbc9 ab3e 15dc 6fbe 5e33 20be 49e7 933c
00000100: 7594 e53c 874b 683e 060f 093d 1532 1c3d
00000110: d7b9 07bd 9d5e ccbd cdf4 e8bc 5ed7 da3c
00000120: 6047 eebd 9a15 fe3c a985 4a3d 4444 12be
00000130: a6ff 6fbd e3cd b2bc 6196 d03c 0103 8fbd
00000140: a339 42bc 34f7 b8bd d8d3 2fbd 4bb0 4c3d
00000150: 2db2 cebe ef97 b03d b13c 703d 94b2 7e3d
00000160: 28a5 f9bc 89a9 77be a8e4 9b3d d9af 8e3b
00000170: e461 353c f3e0 81bc 8eec bb3d 215a 00be
00000180: f2b2 a03d 4e15 8fbe c639 1f3e abc0 cebc
00000190: 55b7 763e 36a1 923d 3bf9 2e3e f12d 16be
000001a0: 64ec f3bc 0aeb 5bbe 07d8 11bd a49a 9fbd
000001b0: 4471 413d 932a f4bd 7f6b 3dbe 9caf b0bd
000001c0: 60c4 36ba 1c7e f13c 29ad f73d dc17 b6bc
000001d0: f38c 67bc b420 28bd f6c9 1b3c a524 9c3d
000001e0: 3d50 84bd d358 6ebd 29b9 9e3b d295 3dbc
000001f0: 6a67 58bd b584 e5bd 9541 bbbb 5c73 603b
00000200: b359 d93b a278 153e 0a17 413e dc21 bcbb
00000210: 1088 55bc cfc4 8c3c 47b8 dfbd f52c 25bc
00000220: f4cd bb3c c74a f03c dd02 75bc bf83 7fbe
00000230: 1840 23be 25db cabc 6b3c 9cbc 94a0 683c
00000240: c03e 69bc db01 32bd 46eb 6a3d 35e0 16bc
00000250: 99e0 11ba 22bc f4bc 908a b5bd f9d7 c93d
00000260: 1213 423d af72 5fbc e890 1a3e 21ea 8e3d
00000270: 2bbc 49be d947 be3c c70a 4b3c d894 98be
00000280: d3f9 bb3e 19d2 b63c 3e04 0a3e 3f69 a2bd
00000290: efc6 46bc bff6 d4bc 8c53 d03c a1ac c1bc
000002a0: 2f95 e03c 9bf2 11bd 91ce f3bd cbe1 10be
000002b0: 0b93 e73b f426 54bd b176 0c3e c9f7 15bd
000002c0: 97ed b2bb 673d 263a 14f5 463c 61bd 2abe
000002d0: 1806 c2bd 3aa0 05be 7a2b 0abe 1b58 ffbd
000002e0: f2f9 62be d683 6f3d d315 283c 9f15 febb
000002f0: b170 e23b fc81 f7bd 6102 423d 15b8 7c3c
00000300: d8b6 253c ba54 8f3c 7d92 463e d352 233e
00000310: 3184 4e3d 98d7 b23d f287 e1bd 866f a43c
00000320: 5b03 b7bd a683 e4bd f8f2 ddbd f292 013d
00000330: b9bf c3bc 41e9 213d 6571 49bd b1cd 69bd
00000340: f831 c03c 70b5 f63e 478e 45bd f3c5 44bd
00000350: 7969 c53c dbf2 d83b cda0 0abe d45a b63d
00000360: b9b3 f93d 0531 e33d 5556 94bd d5f6 9dbd
00000370: 2f82 063d 140f 1f3c a104 86bc 2532 b33b
00000380: 88de 023e 162c a8bd 8d5a 0fbd 8c52 c3bb
00000390: bfdb 6b3c 3e6e 2bbe 55db 793d 3765 803d
000003a0: 2ca8 32be 8f6e c13d 3183 e2bc 3dc4 053b
000003b0: 6885 b53c 6ecb fb3b 4af4 1b3c 21f7 c33c
000003c0: 5141 b5bd 2e3e 4cbd 9605 27be d51e 0e3d
000003d0: fdcb 4a3e bf0f 88bd b73b aabb 7767 983c
000003e0: 49e8 193c 486e 6cbe 9503 c53c 29fe 51ba
000003f0: cb95 4bbc e091 8cba cabc 3e3c 121e 8a3e

dense1.bias f4 [64]
0.34100226 -0.19052982 -0.45250505 0.3581949 0.14369789 0.33652696 0.2918807 -0.21800365
0.27147686 0.33750424 -0.3638291 -0.23530243 -0.1619511 -0.25738078 -0.44977576 -0.42265657
0.3381549 0.3872418 -0.31596938 -0.3018356 0.3898322 0.23946643 -0.25624073 -0.39368626
0.2959251 -0.32884097 0.40662956 0.25102812 0.2676564 0.28257167 0.19527611 -0.32317933
-0.33689642 0.2893084 0.26704523 -0.35283422 -0.2768078 -0.32928592 0.3719173 -0.18440251
-0.27613634 -0.31749326 0.25805166 -0.30555984 0.370024 0.3633102 0.2628034 -0.38988292
-0.16473147 -0.28396532 0.26064473 0.24002379 0.22333086 0.459153 -0.32011613 -0.008591926
-0.26270303 -0.24132095 0.14612535 -0.3041024 0.32443643 -0.22225355 0.27156132 -0.43646577
00000000: d997 ae3e 401a 43be beae e7be 5265 b73e
00000010: 8a25 133e 434d ac3e 6371 953e 593c 5fbe
00000020: 04ff 8a3e 5bcd ac3e cf47 babe 1ff3 70be
00000030: 82d6 25be 6ac7 83be 0249 e6be 7166 d8be
00000040: a422 ad3e 8f44 c63e bdc6 a1be 328a 9abe
00000050: 1698 c73e b036 753e fc31 83be 3f91 c9be
00000060: 7f83 973e d85d a8be c031 d03e c286 803e
00000070: 420a 893e 3cad 903e 76f6 473e c377 a5be
00000080: b07d acbe 3b20 943e 27ba 883e b0a6 b4be
00000090: c1b9 8dbe 2a98 a8be f26b be3e 03d4 3cbe
000000a0: be61 8dbe 7a8e a2be 591f 843e 5772 9cbe
000000b0: c973 bd3e cb03 ba3e 2b8e 863e bc9e c7be
000000c0: 5eaf 28be e763 91be 3a73 853e ccc8 753e
000000d0: d8b0 643e 1a16 eb3e 43e6 a3be 26c5 0cbc
000000e0: 0381 86be d71c 77be e2a1 153e 4fb3 9bbe
000000f0: 881c a63e 6f96 63be 160a 8b3e 7178 dfbe

dense2.weight f4 [64, 64]
0.1242428 0.22636698 0.1563566 -0.2544056 0.2503721 0.09589126 0.038919058 -0.11904158
-0.0787491 -0.5611274 -0.36227763 0.37639025 -0.15451947 0.1715979 0.2782198 0.042844813
-0.21226375 -0.37041205 0.40549138 0.31075624 0.25281593 -0.21927324 0.04498284 -0.08710419
-0.4800658 0.3184585 -0.08901773 -0.12241573 -0.41994917 -0.17059705 -0.31670323 -0.13370411
0.24713878 -0.2693342 -0.078216664 0.4132405 0.30901125 0.2524949 0.021553922 -0.11216697
0.06948846 -0.18239719 -0.25596336 -0.27948013 -0.2762474 -0.12230176 -0.060567964 0.10733258
0.25985345 0.41823483 -0.27800718 -0.09948839 -0.1488049 -0.04195886 0.039674763 -0.09342161
0.40961727 -0.24900112 -0.20635466 -0.014819989 -0.31944427 0.15629537 -0.42406657 0.14430843
-0.024472352 0.14143474 -0.384206 0.17475231 0.03351307 -0.18586554 -0.21802169 -0.46692407
0.11201273 0.38035792 -0.12675765 -0.096320495 0.14940634 -0.21899806 -0.15959553 -0.20624796
0.019568123 -0.28101373 -0.01987195 0.19267397 0.042866744 -0.29623225 -0.07853409 0.05331421
0.09744784 -0.16435018 -0.14740393 0.287949 -0.04946766 0.11186742 0.28006053 0.09578537
0.11947418 -0.10251934 -0.10194565 -0.27445212 -0.12471369 0.06563924 -0.016272463 0.36652023
0.13322882 -0.095934056 0.086379334 -0.18676731 -0.0667573 0.072169214 -0.15214697 0.15706852
0.060720548 -0.4099373 0.06210057 0.02192893 0.08601644 -0.2879022 -0.057629533 0.14372544
-0.47104695 0.069445126 0.1777247 -0.066158004 0.2765857 -0.34755528 0.21992923 -0.16973731
-0.32002228 0.27350298 0.19977638 -0.27322835 -0.060839746 0.060995232 -0.010186098 0.24508196
-0.07929679 -0.12206228 0.056977276 0.1517836 0.29672554 0.5599735 0.50461775 -0.05189572
-0.19184926 -0.21349174 0.21291468 -0.046282478 -0.17165801 0.030575434 0.062109236 0.2973018
-0.3164991 0.37823385 -0.48393068 -0.38329738 -0.28157526 -0.21426466 -0.6190802 0.1610454
0.42507878 0.015566386 0.18399598 0.42599618 0.114501245 0.10372736 -0.3699749 -0.029281428
-0.14436705 -0.16157186 0.00940117 0.053758502 -0.3709224 -0.2266893 -0.085161895 0.282961
0.1371011 0.32123947 -0.34908077 -0.012612639 -0.4296768 -0.28036797 -0.050226796 0.17884316
0.091647655 0.39263904 -0.052163284 0.10192508 -0.20103608 0.35626054 -0.3038982 0.06163312
0.13073596 0.21491113 -0.30995125 0.043935478 -0.15320571 -0.2765663 0.09743042 -0.54809666
-0.26381198 0.35652673 -0.21878584 -0.05464308 0.0011461588 -0.044110347 0.008421092 0.19860826
0.19519489 -0.018745441 -0.123239264 -0.05637341 -0.010708116 0.29616624 0.029414808 0.05472276
0.27844846 -0.4757625 0.009860939 0.21840079 0.22062229 0.10120385 -0.035950504 -0.17744449
-0.015581151 0.22008578 0.115118794 -0.42281204 0.037631426 -0.3714301 0.39708844 -0.044653468
-0.14433123 -0.20323119 0.26903376 0.14693157 0.17547464 0.0577889 0.26059115 -0.22114266
-0.5298262 -0.15640618 0.3282929 0.30693203 0.16505824 0.009891598 -0.2664867 0.10120523
-0.0860495 -0.056933846 -0.15334147 0.007792638 0.11298024 -0.4122827 0.19123703 0.01619963
00000000: 0273 fe3d bfcc 673e f21b 203e 7341 82be
00000010: c630 803e a362 c43d 9769 1f3d 12cc f3bd
00000020: 3547 a1bd 0ca6 0fbf 747c b9be 39b6 c03e
00000030: 5a3a 1ebe 5cb7 2f3e d372 8e3e 0b7e 2f3d
00000040: ab5b 59be a6a6 bdbe 919c cf3e 711b 9f3e
00000050: 1771 813e 2a89 60be ed3f 383d ae63 b2bd
00000060: 2fcb f5be fe0c a33e ed4e b6bd 19b5 fabd
00000070: 9403 d7be feb0 2ebe ed26 a2be bbe9 08be
00000080: f311 7d3e 2ce6 89be 0f30 a0bd 4294 d33e
00000090: b936 9e3e 0347 813e da91 b03c ccb7 e5bd
000000a0: f74f 8e3d 54c6 3abe a10d 83be 0518 8fbe
000000b0: 4d70 8dbe 5879 fabd 1d16 78bd 2fd1 db3d
000000c0: 830b 853e e022 d63e f556 8ebe 92c0 cbbd
000000d0: 5060 18be 0edd 2bbd 0182 223d d453 bfbd
000000e0: 5bb9 d13e 26fa 7ebe a34e 53be 8acf 72bc
000000f0: 338e a3be e50b 203e 411f d9be 97c5 133e
00000100: 3e7a c8bc 45d4 103e a6b6 c4be 45f2 323e
00000110: 0045 093d 8953 3ebe 1441 5fbe ac10 efbe
00000120: ee66 e53d 46be c23e c2cc 01be ae43 c5bd
00000130: fafd 183e 0741 60be 036d 23be aa32 53be
00000140: 544d a03c 08e1 8fbe 80ca a2bc 534c 453e
00000150: 0a95 2f3d c1ab 97be 7bd6 a0bd 0060 5a3d
00000160: bc92 c73d 6a4b 28be 0ef1 16be 0d6e 933e
00000170: 9a9e 4abd bf1a e53d 1864 8f3e 1f2b c43d
00000180: e1ae f43d a9f5 d1bd e2c8 d0bd fd84 8cbe
00000190: e469 ffbd de6d 863d d44d 85bc 8aa8 bb3e
000001a0: 236d 083e 1379 c4bd a6e7 b03d ee3f 3fbe
000001b0: 0db8 88bd 74cd 933d 6acc 1bbe 92d6 203e
000001c0: 1cb6 783d 4de3 d1be 2b5d 7e3d 4da4 b33c
000001d0: 6329 b03d eb67 93be f20c 6cbd c32c 133e
000001e0: 112d f1be 3f39 8e3d 77fd 353e d97d 87bd
000001f0: a49c 8d3e c4f2 b1be 2135 613e 9ecf 2dbe
00000200: f6d9 a3be 9508 8c3e 2e92 4c3e 96e4 8bbe
00000210: 1933 79bd 23d6 793d 97e3 26bc c4f6 7a3e
00000220: 5b66 a2bd cafb f9bd 0161 693d 296d 1b3e
00000230: 69ec 973e 6c5a 0f3f a12e 013f 9b90 54bd
00000240: 2274 44be 949d 5abe 4e06 5a3e b292 3dbd
00000250: 1ec7 2fbe 5579 fa3c 4166 7e3d f137 983e
00000260: 2c0c a2be dea7 c13e c3c5 f7be 8e3f c4be
00000270: a22a 90be 3268 5bbe 0a7c 1ebf 16e9 243e
00000280: eda3 d93e 280a 7f3c 7169 3c3e 2c1c da3e
00000290: a17f ea3d 036f d43d 5a6d bdbe 9bdf efbc
000002a0: f5d4 13be 1873 25be 5d07 1a3c e031 5c3d
000002b0: 8ae9 bdbe 3d21 68be 5c69 aebd 44e0 903e
000002c0: 3b64 0c3e 8079 a43e b7ba b2be 3ea5 4ebc
000002d0: 99fe dbbe 648c 8fbe 9dba 4dbd a922 373e
000002e0: c4b1 bb3d fc07 c93e 2ba9 55bd 19be d03d
000002f0: 67dc 4dbe c867 b63e 8b98 9bbe 0373 7c3d
00000300: a6df 053e aa11 5c3e eeb1 9ebe b0f5 333d
00000310: f5e1 1cbe 199a 8dbe 9a89 c73d 1050 0cbf
00000320: 5d12 87be ac8a b63e 6509 60be 6cd1 5fbd
00000330: b53a 963a 0dad 34bd 9ff8 093c f75f 4b3e
00000340: 2be1 473e 0a90 99bc de64 fcbd cee7 66bd
00000350: 1871 2fbc 1aa3 973e 53f7 f03c f924 603d
00000360: cc90 8e3e 2497 f3be c78f 213c 75a4 5f3e
00000370: cfea 613e f743 cf3d d640 13bd 02b4 35be
00000380: 1548 7fbc 2b5e 613e 67c3 eb3d d27a d8be
00000390: 6923 1a3d 162c bebe 2d4f cb3e 8ee6 36bd
000003a0: 91cb 13be d61b 50be cbbe 893e 3b75 163e
000003b0: a0af 333e 0eb4 6c3d 346c 853e 3973 62be
000003c0: b1a2 07bf f128 20be 0216 a83e 3226 9d3e
000003d0: 0705 293e 5e10 223c f270 88be b044 cf3d
000003e0: b83a b0bd 7733 69bd 8c05 1dbe 6359 ff3b
000003f0: 2f62 e73d b816 d3be a4d3 433e 16b5 843c

dense2.bias f4 [64]
-0.19452421 0.063258536 -0.26589152 0.13529289 -0.16017553 -0.13681023 -0.25546846 -0.26447454
0.16162917 -0.16573648 0.30315104 0.1581355 0.10983192 -0.0967036 0.16631772 -0.13008252
0.1597628 -0.22688338 -0.07645473 0.20630527 -0.0066139703 0.1920672 -0.030107144 0.26556817
0.19245398 0.15665805 0.15076703 0.24856472 0.1550867 0.14040515 0.10194415 -0.18997288
-0.14670493 -0.12714273 0.17093407 0.08973429 0.2514781 0.2454542 0.13249163 0.255234
-0.09770727 -0.06927444 0.070936166 0.1630774 0.31125563 0.16253234 -0.1260253 -0.33621153
-0.14582208 -0.17171872 -0.1494171 -0.32114792 0.15368028 0.14188369 0.14545277 -0.08216012
0.13916203 0.10382063 -0.049935147 -0.11524865 0.18173823 -0.21152927 0.08771215 -0.21792644
00000000: 5b31 47be b18d 813d ef22 88be 388a 0a3e
00000010: 0e05 24be fb17 0cbe c3cc 82be 3569 87be
00000020: 1e82 253e d3b6 29be 9d36 9b3e 46ee 213e
00000030: 8fef e03d 890c c6bd 314f 2a3e 5a34 05be
00000040: dc98 233e 1e54 68be 4c94 9cbd b041 533e
00000050: 01ba d8bb 44ad 443e 42a3 f6bc 8df8 873e
00000060: a812 453e f86a 203e ac62 1a3e c087 7e3e
00000070: 0ccf 1e3e 5ec6 0f3e 18c8 d03d 4088 42be
00000080: d139 16be b431 02be 5709 2f3e 9dc6 b73d
00000090: bdc1 803e 5958 7b3e e3ab 073e 08ae 823e
000000a0: c01a c8bd c2df 8dbd fb46 913d c3fd 263e
000000b0: e65c 9f3e e16e 263e c70c 01be eb23 acbe
000000c0: 6252 15be 08d7 2fbe cc00 19be 806d a4be
000000d0: 5d5e 1d3e f549 113e 92f1 143e 9143 a8bd
000000e0: 7e80 0e3e e99f d43d cc88 4cbd 7c07 ecbd
000000f0: 9619 3a3e 219b 58be 6da2 b33d 1c28 5fbe

dense3.weight f4 [1, 64]
1.3116969 -1.3865774 1.2197121 -1.3170995 1.3497183 1.3542136 1.2302572 1.2212225
-1.2439485 1.2945589 -1.1891571 -1.2406018 -1.4223936 1.351302 -1.3009982 1.3660194
-1.2381757 1.2785592 1.3812286 -1.2781616 -1.5475222 -1.2697514 1.5218605 -1.2474982
-1.2502344 -1.319521 -1.2919028 -1.2390499 -1.3004447 -1.3093938 -1.3652235 1.2970575
1.3520212 1.366771 -1.3278459 -1.3939673 -1.2182053 -1.2597716 -1.3095601 -1.2767216
1.4025363 1.312607 -1.4477165 -1.2544454 -1.1686584 -1.3612407 1.3388344 1.2094631
1.3772675 1.2850807 1.3139681 1.1696665 -1.3456788 -1.289144 -1.2531395 1.3478951
-1.3123662 -1.3280752 1.4026744 1.3554885 -1.3005884 1.283416 -1.5054955 1.215582
00000000: afe5 a73f 5e7b b1bf 871f 9c3f b796 a8bf
00000010: 92c3 ac3f df56 ad3f 1179 9d3f 0551 9c3f
00000020: b439 9fbf 1bb4 a53f 4d36 98bf 0acc 9ebf
00000030: fe10 b6bf 77f7 ac3f 1c87 a6bf b9d9 ae3f
00000040: 8b7c 9ebf d4a7 a33f 19cc b03f cd9a a3bf
00000050: 3515 c6bf 3787 a2bf 53cc c23f 05ae 9fbf
00000060: ae07 a0bf 10e6 a8bf 125d a5bf 3099 9ebf
00000070: f974 a6bf 379a a7bf a5bf aebf fb05 a63f
00000080: 080f ad3f 5af2 ae3f dbf6 a9bf 856d b2bf
00000090: 27ee 9bbf 3240 a1bf aa9f a7bf 9d6b a3bf
000000a0: 4f86 b33f 8203 a83f c64e b9bf ab91 a0bf
000000b0: 9996 95bf 233d aebf ed5e ab3f b0cf 9a3f
000000c0: 4d4a b03f 867d a43f 1b30 a83f a2b7 953f
000000d0: 343f acbf ac02 a5bf e066 a0bf d487 ac3f
000000e0: 9efb a7bf 5efe a9bf d68a b33f a680 ad3f
000000f0: ae79 a6bf fa46 a43f 14b4 c0bf 3198 9b3f
